GRNN(
  (sub_mean): MeanShift(3, 3, kernel_size=(1, 1), stride=(1, 1))
  (add_mean): MeanShift(3, 3, kernel_size=(1, 1), stride=(1, 1))
  (head): Conv2d(3, 64, kernel_size=(3, 3), stride=(1, 1), padding=(1, 1))
  (bodypre): Conv2d(64, 64, kernel_size=(3, 3), stride=(1, 1), padding=(1, 1))
  (group): ModuleList(
    (0): ResGroup(
      (b1): ReBlock(
        (conv1): Sequential(
          (0): Conv2d(64, 32, kernel_size=(3, 3), stride=(1, 1), padding=(1, 1))
          (1): ReLU(inplace=True)
          (2): Conv2d(32, 64, kernel_size=(3, 3), stride=(1, 1), padding=(1, 1))
          (3): ReLU(inplace=True)
        )
        (conv2): Sequential(
          (0): Conv2d(64, 32, kernel_size=(3, 3), stride=(1, 1), padding=(1, 1))
          (1): ReLU(inplace=True)
          (2): Conv2d(32, 64, kernel_size=(3, 3), stride=(1, 1), padding=(1, 1))
        )
        (relu): ReLU(inplace=True)
      )
      (b2): ReBlock(
        (conv1): Sequential(
          (0): Conv2d(64, 32, kernel_size=(3, 3), stride=(1, 1), padding=(1, 1))
          (1): ReLU(inplace=True)
          (2): Conv2d(32, 64, kernel_size=(3, 3), stride=(1, 1), padding=(1, 1))
          (3): ReLU(inplace=True)
        )
        (conv2): Sequential(
          (0): Conv2d(64, 32, kernel_size=(3, 3), stride=(1, 1), padding=(1, 1))
          (1): ReLU(inplace=True)
          (2): Conv2d(32, 64, kernel_size=(3, 3), stride=(1, 1), padding=(1, 1))
        )
        (relu): ReLU(inplace=True)
      )
      (b3): ReBlock(
        (conv1): Sequential(
          (0): Conv2d(64, 32, kernel_size=(3, 3), stride=(1, 1), padding=(1, 1))
          (1): ReLU(inplace=True)
          (2): Conv2d(32, 64, kernel_size=(3, 3), stride=(1, 1), padding=(1, 1))
          (3): ReLU(inplace=True)
        )
        (conv2): Sequential(
          (0): Conv2d(64, 32, kernel_size=(3, 3), stride=(1, 1), padding=(1, 1))
          (1): ReLU(inplace=True)
          (2): Conv2d(32, 64, kernel_size=(3, 3), stride=(1, 1), padding=(1, 1))
        )
        (relu): ReLU(inplace=True)
      )
      (cat2): Conv2d(128, 64, kernel_size=(1, 1), stride=(1, 1))
      (cat3): Conv2d(128, 64, kernel_size=(1, 1), stride=(1, 1))
      (cat4): Conv2d(128, 64, kernel_size=(1, 1), stride=(1, 1))
    )
    (1): ResGroup(
      (b1): ReBlock(
        (conv1): Sequential(
          (0): Conv2d(64, 32, kernel_size=(3, 3), stride=(1, 1), padding=(1, 1))
          (1): ReLU(inplace=True)
          (2): Conv2d(32, 64, kernel_size=(3, 3), stride=(1, 1), padding=(1, 1))
          (3): ReLU(inplace=True)
        )
        (conv2): Sequential(
          (0): Conv2d(64, 32, kernel_size=(3, 3), stride=(1, 1), padding=(1, 1))
          (1): ReLU(inplace=True)
          (2): Conv2d(32, 64, kernel_size=(3, 3), stride=(1, 1), padding=(1, 1))
        )
        (relu): ReLU(inplace=True)
      )
      (b2): ReBlock(
        (conv1): Sequential(
          (0): Conv2d(64, 32, kernel_size=(3, 3), stride=(1, 1), padding=(1, 1))
          (1): ReLU(inplace=True)
          (2): Conv2d(32, 64, kernel_size=(3, 3), stride=(1, 1), padding=(1, 1))
          (3): ReLU(inplace=True)
        )
        (conv2): Sequential(
          (0): Conv2d(64, 32, kernel_size=(3, 3), stride=(1, 1), padding=(1, 1))
          (1): ReLU(inplace=True)
          (2): Conv2d(32, 64, kernel_size=(3, 3), stride=(1, 1), padding=(1, 1))
        )
        (relu): ReLU(inplace=True)
      )
      (b3): ReBlock(
        (conv1): Sequential(
          (0): Conv2d(64, 32, kernel_size=(3, 3), stride=(1, 1), padding=(1, 1))
          (1): ReLU(inplace=True)
          (2): Conv2d(32, 64, kernel_size=(3, 3), stride=(1, 1), padding=(1, 1))
          (3): ReLU(inplace=True)
        )
        (conv2): Sequential(
          (0): Conv2d(64, 32, kernel_size=(3, 3), stride=(1, 1), padding=(1, 1))
          (1): ReLU(inplace=True)
          (2): Conv2d(32, 64, kernel_size=(3, 3), stride=(1, 1), padding=(1, 1))
        )
        (relu): ReLU(inplace=True)
      )
      (cat2): Conv2d(128, 64, kernel_size=(1, 1), stride=(1, 1))
      (cat3): Conv2d(128, 64, kernel_size=(1, 1), stride=(1, 1))
      (cat4): Conv2d(128, 64, kernel_size=(1, 1), stride=(1, 1))
    )
    (2): ResGroup(
      (b1): ReBlock(
        (conv1): Sequential(
          (0): Conv2d(64, 32, kernel_size=(3, 3), stride=(1, 1), padding=(1, 1))
          (1): ReLU(inplace=True)
          (2): Conv2d(32, 64, kernel_size=(3, 3), stride=(1, 1), padding=(1, 1))
          (3): ReLU(inplace=True)
        )
        (conv2): Sequential(
          (0): Conv2d(64, 32, kernel_size=(3, 3), stride=(1, 1), padding=(1, 1))
          (1): ReLU(inplace=True)
          (2): Conv2d(32, 64, kernel_size=(3, 3), stride=(1, 1), padding=(1, 1))
        )
        (relu): ReLU(inplace=True)
      )
      (b2): ReBlock(
        (conv1): Sequential(
          (0): Conv2d(64, 32, kernel_size=(3, 3), stride=(1, 1), padding=(1, 1))
          (1): ReLU(inplace=True)
          (2): Conv2d(32, 64, kernel_size=(3, 3), stride=(1, 1), padding=(1, 1))
          (3): ReLU(inplace=True)
        )
        (conv2): Sequential(
          (0): Conv2d(64, 32, kernel_size=(3, 3), stride=(1, 1), padding=(1, 1))
          (1): ReLU(inplace=True)
          (2): Conv2d(32, 64, kernel_size=(3, 3), stride=(1, 1), padding=(1, 1))
        )
        (relu): ReLU(inplace=True)
      )
      (b3): ReBlock(
        (conv1): Sequential(
          (0): Conv2d(64, 32, kernel_size=(3, 3), stride=(1, 1), padding=(1, 1))
          (1): ReLU(inplace=True)
          (2): Conv2d(32, 64, kernel_size=(3, 3), stride=(1, 1), padding=(1, 1))
          (3): ReLU(inplace=True)
        )
        (conv2): Sequential(
          (0): Conv2d(64, 32, kernel_size=(3, 3), stride=(1, 1), padding=(1, 1))
          (1): ReLU(inplace=True)
          (2): Conv2d(32, 64, kernel_size=(3, 3), stride=(1, 1), padding=(1, 1))
        )
        (relu): ReLU(inplace=True)
      )
      (cat2): Conv2d(128, 64, kernel_size=(1, 1), stride=(1, 1))
      (cat3): Conv2d(128, 64, kernel_size=(1, 1), stride=(1, 1))
      (cat4): Conv2d(128, 64, kernel_size=(1, 1), stride=(1, 1))
    )
  )
  (concat): ModuleList(
    (0): Conv2d(128, 64, kernel_size=(1, 1), stride=(1, 1))
    (1): Conv2d(128, 64, kernel_size=(1, 1), stride=(1, 1))
    (2): Conv2d(128, 64, kernel_size=(1, 1), stride=(1, 1))
  )
  (tail): UpInter(
    (0): Conv2d(64, 48, kernel_size=(3, 3), stride=(1, 1), padding=(1, 1))
    (1): PixelShuffle(upscale_factor=4)
  )
)
[Epoch 1]	Learning rate: 2.00e-4
[3200/16000]	[L1: 16.8631]	12.2+1.3s
[6400/16000]	[L1: 13.0689]	11.7+0.4s
[9600/16000]	[L1: 11.5764]	11.7+0.4s
[12800/16000]	[L1: 10.6783]	11.7+0.4s
[16000/16000]	[L1: 10.1077]	11.5+0.4s

Evaluation:
parameters of net: 830792
[Set5 x4]	PSNR: 29.39054 (Best: 29.39054 @epoch 1)
…
